…
  pre {\n","        white-space: pre-wrap;\n","    }\n","  </style>\n","  "]},"metadata":{}},{"output_type":"execute_result","data":{"text/plain":["BartForConditionalGeneration(\n","  (model): BartModel(\n","    (shared): BartScaledWordEmbedding(50264, 1024, padding_idx=1)\n","    (encoder): BartEncoder(\n","      (embed_tokens): BartScaledWordEmbedding(50264, 1024, padding_idx=1)\n","      (embed_positions): BartLearnedPositionalEmbedding(1026, 1024)\n","      (layers): ModuleList(\n","        (0-11): 12 x BartEncoderLayer(\n","          (self_attn): BartSdpaAttention(\n","            (k_proj): Linear(in_features=1024, out_features=1024, bias=True)\n","            (v_proj): Linear(in_features=1024, out_features=1024, bias=True)\n","            (q_proj): Linear(in_features=1024, out_features=1024, bias=True)\n","            (out_proj): Linear(in_features=1024, out_features=1024, bias=True)\n","          )\n","          (self_attn_layer_norm): LayerNorm((1024,), eps=1e-05, elementwise_affine=True)\n","          (activation_fn): GELUActivation()\n","          (fc1): Linear(in_features=1024, out_features=4096, bias=True)\n","          (fc2): Linear(in_features=4096, out_features=1024, bias=True)\n","          (final_layer_norm): LayerNorm((1024,), eps=1e-05, elementwise_affine=True)\n","        )\n","      )\n","      (layernorm_embedding): LayerNorm((1024,), eps=1e-05, elementwise_affine=True)\n","    )\n","    (decoder): BartDecoder(\n","      (embed_tokens): BartScaledWordEmbedding(50264, 1024, padding_idx=1)\n","      (embed_positions): BartLearnedPositionalEmbedding(1026, 1024)\n","      (layers): ModuleList(\n","        (0-11): 12 x BartDecoderLayer(\n","          (self_attn): BartSdpaAttention(\n","            (k_proj): Linear(in_features=1024, out_features=1024, bias=True)\n","            (v_proj): Linear(in_features=1024, out_features=1024, bias=True)\n","            (q_proj): Linear(in_features=1024, out_features=1024, bias=True)\n","            (out_proj): Linear(in_features=1024, out_features=1024, bias=True)\n","          )\n","          (activation_fn): GELUActivation()\n","          (self_attn_layer_norm): LayerNorm((1024,), eps=1e-05, elementwise_affine=True)\n","          (encoder_attn): BartSdpaAttention(\n","            (k_proj): Linear(in_features=1024, out_features=1024, bias=True)\n","            (v_proj): Linear(in_features=1024, out_features=1024, bias=True)\n","            (q_proj): Linear(in_features=1024, out_features=1024, bias=True)\n","            (out_proj): Linear(in_features=1024, out_features=1024, bias=True)\n","          )\n","          (encoder_attn_layer_norm): LayerNorm((1024,), eps=1e-05, elementwise_affine=True)\n","          (fc1): Linear(in_features=1024, out_features=4096, bias=True)\n","          (fc2): Linear(in_features=4096, out_features=1024, bias=True)\n","          (final_layer_norm): LayerNorm((1024,), eps=1e-05, elementwise_affine=True)\n","        )\n","      )\n","      (layernorm_embedding): LayerNorm((1024,), eps=1e-05, elementwise_affine=True)\n","    )\n","  )\n","  (lm_head): Linear(in_features=1024, out_features=50264, bias=False)\n",")"]},"metadata":{},"execution_count":6}]},{"cell_type":"code","source":["# Set batch size; adjust based on GPU memory\n","batch_size = 32\n","\n","# Summarization function for batch processing\n","def summarize_batch(text_list, min_length=150, max_length=350):\n","    inputs = tokenizer(\n","        text_list, return_tensors=\"pt\", padding=\"l
…
